data/best_nn_model.pth (torch, 47236 bytes, 6 tensors)

fc1.weight f4 [128, 20]
0.4515298 -0.27283132 -0.73003656 0.6094652 -0.09020877 -0.47901183 -0.20023027 -0.5435243
0.23355587 -0.46550986 0.43034083 -0.57021433 -0.4817906 0.21714093 1.1157594 0.24678066
-0.12828653 -0.10660822 -1.0059997 0.066171095 -0.82716995 0.46017823 -0.420786 0.010852941
1.0337361 0.15824123 -1.1221706 0.10316622 -0.6241226 0.99270636 0.090179816 0.94910717
-0.15391633 0.9663003 -0.263096 0.25225854 0.32515913 -0.28962457 0.08630589 -0.93802994
-0.32594243 0.8437516 -0.2908739 -0.84907764 -0.3432137 0.5871295 0.15862806 0.44209337
0.40820804 0.26762575 0.38076472 0.4377055 -0.59717876 -0.78273356 -0.4223763 0.06679054
0.2576656 0.35428163 0.4967371 0.5793019 0.6156791 -0.5572424 -0.24529272 0.7187154
-0.63334215 0.0760111 -0.19501022 -0.55008394 0.07511974 -0.014054814 -0.4921083 0.5179284
-1.0630261 -0.628142 0.40347356 0.16893694 0.46726745 -0.18065472 -0.60493416 -0.43172872
0.093529195 -1.1448535 -0.014591466 0.5201785 0.21932277 -0.16948353 0.52521384 0.42441967
0.15057804 -1.5009148 -0.21006632 -0.34644032 1.2008227 0.72333443 0.39101556 -0.43302083
0.4351625 -0.19789495 0.22801824 -0.057170022 0.6733008 0.54545665 -0.25009423 0.49901333
1.0306615 0.1883515 -0.58666444 -0.021289248 -0.18670152 0.68891746 0.22745308 0.117953874
0.18902905 0.28105357 0.19724192 -1.0417688 0.87387145 -0.5991212 -0.34290215 0.7295957
0.29153278 0.5351235 0.5422168 -0.9196518 -0.9557009 0.43266916 0.69969815 0.7075418
-0.42888933 0.5648669 -0.4448672 0.0138027975 0.124630086 -1.008635 -0.1631425 0.64056444
0.02443628 0.6811721 0.010467606 0.6425172 -0.21189523 -0.19612814 0.77566946 0.07885961
0.3422729 -0.48948306 -1.1816548 -0.390682 -0.13888898 -0.07742035 -0.0240136 0.9056256
0.019010708 -0.15089546 -0.7584912 0.08803757 0.046091136 0.32707915 1.5190853 0.365462
0.21696667 -0.40475246 1.1946615 0.6564163 0.26140246 -0.091799684 -0.4672461 0.2636504
-0.31734616 -0.66438925 0.18340863 -0.11681985 -0.8660319 0.4428103 0.75566065 0.27488288
0.22117685 0.9807383 1.2825121 0.37181056 0.83451045 0.6784698 -0.06361529 0.2041348
-1.1957461 -0.2241298 -0.8754092 0.6857793 -1.0333115 0.10164645 -0.7484147 0.48614538
0.27614477 0.33061695 0.07434527 -0.013388949 -0.55690384 -0.5245861 0.42727134 -0.34847194
0.48041385 0.48964313 -0.604198 -0.17028497 0.50231946 0.862357 0.5693375 0.41593838
0.2396471 -0.32793128 -0.2225804 -0.4873641 -0.93031853 0.5095325 -0.9440549 -0.20733805
0.5477293 0.41791606 -0.47280833 0.24585168 -0.43593535 -0.7575513 0.16165479 0.69263184
0.21643767 0.96510774 -0.17564018 0.9748662 -0.3674888 0.69159335 0.09269528 -0.46371666
-0.68775624 -0.44026715 -0.7661575 -0.13958591 -0.05344588 0.24998948 0.37552094 -0.85747546
-0.75882596 0.07449842 -0.17627892 -0.17914434 -0.8291422 0.31994867 0.5848599 -0.078005135
0.34195623 -0.82123774 0.15553458 0.063558124 0.38749197 -0.008535845 -0.81796217 0.018227737
00000000: ea2e e73e 8cb0 8bbe ade3 3abf e905 1c3f
00000010: 60bf b8bd 0a41 f5be 2a09 4dbe 6924 0bbf
00000020: 4529 6f3e 4f57 eebe a255 dc3e 91f9 11bf
00000030: 42ad f6be 315a 5e3e 34d1 8e3f 12b4 7c3e
00000040: 8b5d 03be 6955 dabd 99c4 80bf b684 873d
00000050: 69c1 53bf 7b9c eb3e 4371 d7be 89d0 313c
00000060: 7751 843f fd09 223e 49a3 8fbf d048 d33d
00000070: 80c6 1fbf 0122 7e3f 32b0 b83d b0f8 723f
00000080: 3e9c 1dbe 755f 773f 85b4 86be 0828 813e
00000090: 427b a63e ac49 94be 24c1 b03d bb22 70bf
000000a0: ede1 a6be 1b00 583f 6ced 94be 275d 59bf
000000b0: b5b9 afbe 1e4e 163f 656f 223e 105a e23e
000000c0: a500 d13e 3e06 893e 98f3 c23e ef1a e03e
000000d0: b5e0 18bf 3a61 48bf b541 d8be 7bc9 883d
000000e0: bfec 833e 6764 b53e 5354 fe3e 214d 143f
000000f0: 259d 1d3f 70a7 0ebf 042e 7bbe bcfd 373f
00000100: b622 22bf b5ab 9b3d c2b0 47be 4dd2 0cbf
00000110: 61d8 993d 2a46 66bc 9ef5 fbbe f596 043f
00000120: 3d11 88bf eacd 20bf 1694 ce3e cefd 2c3e
00000130: ae3d ef3e 8dfd 38be f7dc 1abf 8c0b ddbe
00000140: 3c8c bf3d 8f8a 92bf 0b11 6fbc 6b2a 053f
00000150: 2696 603e 178d 2dbe 6a74 063f 894d d93e
00000160: 2131 1a3e fa1d c0bf a01b 57be a060 b1be
00000170: 8fb4 993f 722c 393f 3133 c83e e8b4 ddbe
00000180: 9fcd de3e f9a4 4abe 9d7d 693e 1d2b 6abd
00000190: 715d 2c3f 0ca3 0b3f 5a0c 80be ad7e ff3e
000001a0: b7ec 833f 37df 403e a42f 16bf ca66 aebc
000001b0: af2e 3fbe e55c 303f 76e9 683e cd91 f13d
000001c0: d590 413e 41e6 8f3e c9f9 493e ae58 85bf
000001d0: 0ab6 5f3f 0260 19bf df90 afbe c9c6 3a3f
000001e0: c943 953e dbfd 083f b8ce 0a3f 4d6e 6bbf
000001f0: d0a8 74bf d086 dd3e 6b1f 333f 7621 353f
00000200: 6297 dbbe 1e9b 103f a2c5 e3be 2125 623c
00000210: 0f3e ff3d f41a 81bf d40e 27be 08fc 233f
00000220: 982e c83c 4b61 2e3f 5280 2b3c 027c 243f
00000230: 10fb 58be d1d5 48be 4692 463f 2681 a13d
00000240: 653e af3e 869d fabe 7740 97bf 7907 c8be
00000250: ea38 0ebe 8f8e 9ebd 2bb8 c4bc 14d7 673f
00000260: 58bc 9b3c 5784 1abe 7b2c 42bf 0b4d b43d
00000270: 0fca 3c3d eb76 a73e 6371 c23f d61d bb3e
00000280: 832c 5e3e b73b cfbe abea 983f e60a 283f
00000290: 8bd6 853e 7901 bcbd e13a efbe 2ffd 863e
000002a0: 327b a2be 6a15 2abf 79cf 3b3e 3f3f efbd
000002b0: 44b4 5dbf 08b8 e23e fa72 413f 73bd 8c3e
000002c0: 2f7c 623e aa11 7b3f 5b29 a43f f45d be3e
000002d0: 7aa2 553f 32b0 2d3f bc48 82bd b708 513e
000002e0: 350e 99bf 4882 65be d11a 60bf 3b8f 2f3f
000002f0: 8d43 84bf 042c d03d 1b98 3fbf 0ce8 f83e
00000300: d962 8d3e a046 a93e 5542 983d 535d 5bbc
00000310: 4091 0ebf 464b 06bf 4fc3 da3e ea6a b2be
00000320: cef8 f53e 81b2 fa3e b8ac 1abf 2f5f 2ebe
00000330: 0298 003f 6ec3 5c3f 1ac0 113f e0f5 d43e
00000340: 0d66 753e 9ce6 a7be 1eec 63be ca87 f9be
00000350: 5b29 6ebf b970 023f 95ad 71bf 6d50 54be
00000360: fd37 0c3f 18f9 d53e ef13 f2be 8bc0 7b3e
00000370: eb32 dfbe e2ee 41bf d588 253e 5250 313f
00000380: d6a1 5d3e 4d11 773f 05db 33be d590 793f
00000390: 7e27 bcbe 430c 313f 06d7 bd3d 456c edbe
000003a0: cb10 30bf b26a e1be e622 44bf 9cef 0ebe
000003b0: 11ea 5abd 3efd 7f3e 4844 c03e 8383 5bbf
000003c0: 6b42 42bf a192 983d 7682 34be 9d71 37be
000003d0: aa42 54bf 50d0 a33e 61b9 153f 28c1 9fbd
000003e0: e314 af3e a33c 52bf 7544 1f3e c32a 823d
000003f0: 5965 c63e eed9 0bbc f865 51bf 5652 953c

fc1.bias f4 [128]
-0.94459337 -0.53978384 -0.31087393 -0.18022141 -0.0372904 -0.7704274 -0.26498017 -0.42031872
-0.073659964 -0.2773214 0.029135011 -0.6946804 -0.76123625 -0.645487 -1.2626754 -0.39446318
-0.95840806 -0.29817396 -1.0999328 -0.83283156 -0.7227988 -1.1171709 -1.1012707 -1.2660543
-1.2541015 -1.0927644 -0.55608535 -0.934398 -1.0287701 -0.20480232 -0.7549449 -0.64075196
-0.8688036 -0.58803713 -0.85628927 -0.8848018 -0.7555421 0.04225196 -0.9724326 -0.027173672
0.07449737 -0.07910232 -0.8508077 -0.02638207 -0.5498968 -0.004828918 -1.2510772 -0.964625
-0.75768006 -0.8086537 -0.4175365 -0.1821067 -0.31981805 -0.8201782 -0.783809 0.25817314
-0.61407053 -0.35924807 -0.8550971 -0.8312405 -0.68857235 -1.12705 -0.75648755 -0.6775126
-0.116940305 -0.8685371 -0.7899273 -0.697819 -0.98864496 -1.0179757 -1.0835586 -0.24614975
-0.23396508 -0.5764453 -0.004397688 -0.47532648 -0.30458522 -0.43288383 -0.63659966 -1.0564915
-0.90706456 -0.96378917 -0.88463116 -0.68212587 -1.0992166 -0.8604519 -0.9201877 -0.7697144
0.110981874 -0.26293847 -1.1585667 -0.09979007 -0.48918033 -0.9978149 -0.37056562 -0.8508654
0.2686437 -1.321162 -0.40031037 -1.2186803 -0.8350391 -0.48056093 -0.86504334 -0.078847475
-0.7486251 -0.88679713 -0.32785454 -0.49329162 -0.7053102 -0.7038797 -0.5210659 -0.62104
-0.4194602 -1.0450655 -0.5489974 -0.6069597 -0.35420775 -1.0421063 -0.6803103 -0.7986243
-0.57552254 -0.23186913 -0.6695112 -0.6217214 -0.86524194 -0.5329605 -0.7856937 -0.7291601
00000000: dfd0 71bf 462f 0abf de2a 9fbe f68b 38be
00000010: d2bd 18bd bb3a 45bf 7bab 87be 0434 d7be
00000020: 09db 96bd 12fd 8dbe 8cac ee3c 93d6 31bf
00000030: 61e0 42bf a33e 25bf 599f a1bf 14f7 c9be
00000040: 3b5a 75bf 42aa 98be 99ca 8cbf 7334 55bf
00000050: 5809 39bf 75ff 8ebf 70f6 8cbf 110e a2bf
00000060: 6686 a0bf b4df 8bbf 9c5b 0ebf b534 6fbf
00000070: bdae 83bf b3b7 51be 1244 41bf 5208 24bf
00000080: ea69 5ebf 9a89 16bf c635 5bbf 5f82 62bf
00000090: 356b 41bf 6410 2d3d 58f1 78bf 529b debc
000000a0: 1492 983d 6600 a2bd 89ce 59bf 361f d8bc
000000b0: 09c6 0cbf e63b 9ebb 4c23 a0bf aaf1 76bf
000000c0: 52f7 41bf ee03 4fbf 58c7 d5be 2e7a 3abe
000000d0: 31bf a3be 33f7 51bf b5a7 48bf 452f 843e
000000e0: ba33 1dbf 5def b7be a5e7 5abf 2dcc 54bf
000000f0: 4746 30bf 2d43 90bf 2ba9 41bf 7771 2dbf
00000100: 667e efbd 7358 5ebf ad38 4abf 44a4 32bf
00000110: d617 7dbf 074d 82bf 0cb2 8abf ae0e 7cbe
00000120: 8b94 6fbe eb91 13bf 7b1a 90bb fe5d f3be
00000130: 98f2 9bbe f3a2 ddbe 32f8 22bf 1d3b 87bf
00000140: 6235 68bf e3ba 76bf 3077 62bf cd9f 2ebf
00000150: 21b3 8cbf 9346 5cbf 6c91 6bbf 010c 45bf
00000160: 774a e33d df9f 86be ea4b 94bf bc5e ccbd
00000170: d875 fabe cc70 7fbf c7ba bdbe 51d2 59bf
00000180: ab8b 893e d61b a9bf 7bf5 ccbe b7fd 9bbf
00000190: 1fc5 55bf 150c f6be 7b73 5dbf c97a a1bd
000001a0: e5a5 3fbf 2305 63bf 8ddc a7be b890 fcbe
000001b0: 368f 34bf 7631 34bf 9364 05bf 7afc 1ebf
000001c0: 7dc3 d6be b5c4 85bf 188b 0cbf b661 1bbf
000001d0: b85a b5be bd63 85bf d128 2ebf a472 4cbf
000001e0: 7255 13bf 1a6f 6dbe 1665 2bbf 2229 1fbf
000001f0: 7f80 5dbf 1970 08bf 3923 49bf 3caa 3abf

fc2.weight f4 [64, 128]
0.1143531 -0.3627344 -0.83157706 0.03728203 -0.54107314 0.45198795 -0.04075831 -0.31163812
0.089592114 0.45629874 0.0997876 -0.21740887 0.63976914 0.054693043 -0.37415728 0.61697066
-0.82259697 -1.0213188 0.7218451 0.4262892 0.027241744 0.14129569 -0.25620276 0.12917247
0.088358946 0.44959885 -1.1924193 0.10714855 -0.34799212 0.5724088 -0.14437796 -0.038197704
-0.31748188 -0.3442433 0.7837495 0.017615018 0.168424 -0.5129059 -0.06604567 -0.39675283
-1.4476107 0.66055876 -0.38081878 0.31609252 0.20507815 0.051856574 -1.0894557 1.0863061
-0.5350784 -0.7591364 0.5968424 0.29610816 -0.56495094 0.41646963 0.6155397 0.025857689
-0.6176026 -0.5622824 -0.13859542 0.84276366 0.15408836 0.3610909 0.21066321 0.1356057
-1.7440096 0.65062803 -0.65681785 0.31485537 -0.071329005 -0.06696112 0.28164122 -0.5737494
0.10297071 -0.5515868 -0.26719397 0.056540076 -0.22571428 -0.25174138 -0.07386337 0.37277833
0.15533295 -0.41002914 -0.2005937 -0.23949224 0.14450014 -1.5064986 -0.13406925 -0.22778825
0.9922349 0.14370206 0.1601166 -0.65009564 0.0848856 -0.6517162 -0.6251123 0.39253873
0.09998545 -0.66897696 0.16900048 -0.40549016 -1.1605564 -0.022208914 1.1812943 -0.14585128
0.1479267 0.22453402 -1.7767651 0.06557222 -0.07576914 -0.0981532 -0.08906701 -0.007061547
-0.9685889 -0.98166054 -0.31965247 -0.47298628 0.38899097 -0.6996142 -0.3593931 -0.26351002
0.4975504 -0.4356034 -0.36303347 -0.10262673 0.82051164 0.3307871 0.5584534 0.3850647
0.5673625 -0.84328574 -0.064418234 -0.0009785215 -0.09020014 -0.43532968 0.32425392 -0.48446122
0.7773497 -0.08224978 -0.65335727 0.5923806 -0.013096732 0.19646749 0.91303205 -0.45273212
-0.25254804 0.058354102 -0.2879312 -0.010837997 0.041087694 0.020780277 0.5333632 -0.013679774
0.5977042 0.14243445 0.45363787 -0.3595 0.28710413 0.19306184 -0.33283585 -0.06532842
-0.51792437 -0.45081747 0.78935456 0.48519447 0.073417455 -0.847251 -0.26079425 -1.1357778
0.45366728 -0.775047 0.3690427 0.07573441 0.47879604 0.5105052 0.061936848 -0.16574414
0.26941574 0.067652695 0.41182125 -0.50797033 -0.3315199 0.4113795 -1.8908699 -0.38157085
0.64684266 0.12900367 0.03476324 -1.8477417 0.49097475 0.37028748 0.34773704 0.061778843
-0.015485747 0.13283056 0.19954051 0.63064957 -0.35356537 -0.8119181 -1.2407521 -0.23775472
0.23682192 0.104546316 -0.09142086 0.59064305 0.22758101 0.6327754 -0.9097922 0.754652
0.74300504 -0.34571466 -0.3262653 0.22619541 0.37571275 0.4449253 0.16592526 -0.22927365
-0.78527033 -0.1421539 0.44299224 -0.49942645 0.429456 -0.26231787 -0.643525 0.083118185
-0.15702668 -1.3321902 0.06797171 -0.5600742 0.19553028 -0.04466844 0.9485013 -0.075882286
0.11446415 0.42167524 -0.25168055 -0.12840855 -0.12902935 -0.9728944 -0.0053425347 -0.1336945
-0.53172106 0.4829051 -0.0203253 -1.2811371 -0.13731343 -0.16909051 -1.4439932 0.3484202
-0.24884656 0.007226581 -0.42550302 -0.5164057 -0.90956724 0.06620661 -0.45315737 0.5899815
00000000: f531 ea3d 53b8 b9be 3ce2 54bf 0bb5 183d
00000010: c583 0abf f76a e73e 30f2 26bd 088f 9fbe
00000020: 127c b73d fd9f e93e 715d cc3d 6ea0 5ebe
00000030: e9c7 233f d005 603d 8b91 bfbe caf1 1d3f
00000040: b795 52bf 93ba 82bf d7ca 383f 9442 da3e
00000050: 142a df3c d1af 103e 022d 83be ca45 043e
00000060: 89f5 b43d d231 e63e 32a1 98bf b370 db3d
00000070: 062c b2be 6289 123f d1d7 13be 3275 1cbd
00000080: fc8c a2be a840 b0be cfa3 483f 5f4d 903c
00000090: 5777 2c3e cd4d 03bf f442 87bd 3023 cbbe
000000a0: 4f4b b9bf 611a 293f aefa c2be e1d6 a13e
000000b0: 0200 523e 8f67 543d 4973 8bbf 140c 8b3f
000000c0: e6fa 08bf c356 42bf aaca 183f 7d9b 973e
000000d0: a0a0 10bf 823b d53e 0394 1d3f 81d3 d33c
000000e0: 341b 1ebf bdf1 0fbf f5eb 0dbe 5cbf 573f
000000f0: 57c9 1d3e e8e0 b83e 19b8 573e 38dc 0a3e
00000100: b53b dfbf 8f8f 263f 3725 28bf b934 a13e
00000110: f114 92bd e922 89bd 4733 903e 3ee1 12bf
00000120: 4fe2 d23d cb34 0dbf a6cd 88be 9196 673d
00000130: a521 67be 3fe4 80be ae45 97bd cddc be3e
00000140: 9a0f 1f3e 57ef d1be 6f68 4dbe 743d 75be
00000150: d8f7 133e f2d4 c0bf 7349 09be 5341 69be
00000160: 1b03 7e3f a226 133e 9bf5 233e ab6c 26bf
00000170: 80d8 ad3d dfd6 26bf 5c07 20bf d6fa c83e
00000180: 2cc5 cc3d 1342 2bbf 760e 2d3e 689c cfbe
00000190: 1d8d 94bf 78ef b5bc a734 973f 0a5a 15be
000001a0: 197a 173e 3fec 653e 0a6d e3bf ba4a 863d
000001b0: da2c 9bbd 8b04 c9bd c468 b6bd 8d64 e7bb
000001c0: 71f5 77bf 1b4e 7bbf 7da9 a3be 422b f2be
000001d0: d329 c73e eb19 33bf 5f02 b8be c9ea 86be
000001e0: edbe fe3e 6907 dfbe 86df b9be f72d d2bd
000001f0: 0d0d 523f ed5c a93e cdf6 0e3f 3327 c53e
00000200: ab3e 113f 93e1 57bf b5ed 83bd bc41 80ba
00000210: daba b8bd 88e3 debe 9c04 a63e 4d0b f8be
00000220: 6400 473f 9372 a8bd 6c42 27bf 41a6 173f
00000230: ad93 56bc c62e 493e 78bc 693f 81cc e7be
00000240: fa4d 81be b604 6f3d b86b 93be db91 31bc
00000250: 924b 283d 663b aa3c 7e8a 083f 2121 60bc
00000260: 2403 193f 56da 113e 3943 e83e 6210 b8be
00000270: 50ff 923e 01b2 453e 7669 aabe e8ca 85bd
00000280: b196 04bf 8cd1 e6be 2413 4a3f 696b f83e
00000290: e45b 963d 71e5 58bf d386 85be 2b61 91bf
000002a0: 1447 e83e 7b69 46bf 2af3 bc3e a41a 9b3d
000002b0: c124 f53e 78b0 023f 7eb1 7d3d d5b8 29be
000002c0: dcf0 893e 7f8d 8a3d 3cda d23e 580a 02bf
000002d0: fabc a9be 55a0 d23e 0608 f2bf 415d c3be
000002e0: 7b97 253f 8a19 043e e663 0e3d cd82 ecbf
000002f0: 0b61 fb3e 5296 bd3e 970a b23e d00b 7d3d
00000300: eeb7 7dbc bc04 083e 5954 4c3e 4072 213f
00000310: 8506 b5be ddd9 4fbf f7d0 9ebf f975 73be
00000320: 7281 723e 611c d63d dc3a bbbd 6234 173f
00000330: ff0a 693e 92fd 213f 24e8 68bf e030 413f
00000340: 9435 3e3f 8301 b1be 3f0c a7be c59f 673e
00000350: 6c5d c03e 40cd e33e 50e8 293e b6c6 6abe
00000360: 7a07 49bf cb90 11be e1cf e23e d3b4 ffbe
00000370: a8e1 db3e 874e 86be 0ebe 24bf de39 aa3d
00000380: 9acb 20be 3585 aabf c034 8b3d 0661 0fbf
00000390: 1739 483e 41f6 36bd fbd0 723f 2c68 9bbd
000003a0: 2e6c ea3d d1e5 d73e 46dc 80be 887d 03be
000003b0: 4520 04be 9b0f 79bf 6e10 afbb 36e7 08be
000003c0: df1e 08bf 563f f73e 3e81 a6bc 4dfc a3bf
000003d0: e49b 0cbe 1026 2dbe c5d4 b8bf 2264 b23e
000003e0: a2d1 7ebe f5cc ec3b 88db d9be 2a33 04bf
000003f0: 66d9 68bf 5597 873d 3e04 e8be 0709 173f

fc2.bias f4 [64]
-0.0146969855 -0.0045633144 -0.37912297 -0.35965568 0.21365997 0.1024565 -0.39236182 -0.7505937
0.18052748 -0.2827541 -0.7079834 0.19694518 0.5395376 0.3911338 -0.27998853 0.3149919
-0.12927605 0.13315815 -0.23173754 -0.69570535 0.12638427 -0.00871446 -0.32757673 -0.22306395
0.1044903 0.015602428 0.20726947 -0.22229454 -0.16757575 -0.49967027 -0.072304584 0.32437077
0.31674907 0.4671281 0.02945502 0.5141226 0.07288514 -0.094408676 -0.21091303 -0.69340515
0.08329828 0.01237191 -0.10874049 -0.2749822 -0.058402695 0.65032643 0.5500387 -0.03837822
-0.20314641 0.44719365 0.05289058 -0.38549593 -0.4477996 -0.01744293 0.77144384 -0.19900587
-0.7077937 0.11967719 -0.0919872 -0.14713863 0.17492184 0.24732648 -0.25654864 -0.34560338
00000000: a0cb 70bc db87 95bb 681c c2be ca24 b8be
00000010: aec9 5a3e b7d4 d13d a6e3 c8be e926 40bf
00000020: 32dc 383e 25c5 90be 663e 35bf ffab 493e
00000030: 231f 0a3f b042 c83e a85a 8fbe 9e46 a13e
00000040: f160 04be 9c5a 083e 9b4c 6dbe bf19 32bf
00000050: e16a 013e 18c7 0ebc 23b8 a7be e06a 64be
00000060: 03ff d53d 53a1 7f3c 733e 543e 2ea1 63be
00000070: fa98 2bbe c8d4 ffbe 6d14 94bd ed13 a63e
00000080: ef2c a23e 6a2b ef3e a74b f13c 8a9d 033f
00000090: ce44 953d 5659 c1bd 96f9 57be 0083 31bf
000000a0: 4a98 aa3d 8db3 4a3c 56b3 debd 78ca 8cbe
000000b0: aa37 6fbd cb7b 263f 56cf 0c3f 7b32 1dbd
000000c0: 9d05 50be 91f6 e43e cba3 583d b95f c5be
000000d0: fd45 e5be 7ae4 8ebc 587d 453f 32c8 4bbe
000000e0: f831 35bf 5119 f53d c963 bcbd 82ab 16be
000000f0: b61e 333e 2743 7d3e 585a 83be edf2 b0be

fc3.weight f4 [3, 64]
1.3438253 0.304097 2.4312148 -2.2061665 -1.9660189 -1.5220158 -0.8722176 0.072487146
1.227883 2.243233 0.13206244 -1.8652732 -0.7225109 -1.5011605 1.9545125 -2.6227427
0.0446272 -1.7231331 -2.1217954 2.0173335 1.0312879 -2.923164 0.4538304 1.4269484
-0.47325003 -1.2683276 -2.5412874 1.7784172 1.666678 1.2163545 -4.7210417 -1.4048539
-2.612331 -2.2939088 -0.7699131 0.24609414 1.6154197 -0.38517794 -2.2058308 1.0467935
-2.0430593 1.763535 0.02269422 1.7359039 -2.1175196 -0.31370234 -0.75316924 -0.42452687
0.114761844 -0.5086825 0.4835351 -0.8255685 1.0605458 -1.8634869 2.3462958 -1.2351365
-2.1754546 -1.4127257 -2.0767834 0.34434393 1.4107093 1.221597 0.09295935 1.1794295
0.5184557 -1.9851186 -2.278582 -0.5946146 2.751464 1.2911707 1.8189049 1.6830282
-0.2648947 -1.5743849 0.9423546 1.8677727 2.1749494 0.54417586 0.12962069 1.5948081
0.076121435 2.484697 1.4088849 -1.2078774 0.3137171 1.1066692 -1.9333572 0.67370486
-2.1492548 1.6666343 0.44867602 -0.70661724 0.33381638 -1.6417545 2.4069731 -0.53408647
0.71687865 1.0792378 -0.6250835 1.9084624 -1.0084918 2.05328 2.4271944 0.71447325
0.41289243 -1.5438505 0.0169891 -0.07557094 -0.3634931 -1.2920318 2.3101075 3.574434
-1.4887519 1.3860843 -1.4102883 2.0663016 0.75792414 1.303347 -0.9499493 -0.72515535
2.3906407 0.26430923 -0.7687858 -1.1634775 -0.99246943 -2.503602 -1.377253 0.20053186
-2.418734 1.3583769 -0.647429 2.211083 -1.3442272 -0.04002455 -1.0279688 -2.2417192
-1.1294335 -1.0724528 -1.1081142 -0.21193072 -1.7690227 1.0303917 -2.437729 0.4486053
-0.047374364 -1.0899315 0.4152129 -1.3971459 -1.418254 0.85958356 1.3051658 -2.5238981
2.1714141 -0.5381264 1.3781176 -1.4919635 -2.284214 0.23911387 0.5784127 1.5723702
1.1393315 0.8425977 1.4842225 -2.7827516 -0.7514256 -2.1160767 -0.6155711 -2.2548466
1.508529 -0.6401969 -0.007499226 -1.8238777 2.0127795 1.4541137 -2.218365 -3.9479828
1.2201104 -1.284666 0.8338761 -1.4343388 -2.5092432 0.39877898 -1.7965723 1.6280034
-1.0178282 0.95439607 2.502927 0.76403505 -0.5819062 0.71372837 1.2258 -1.3795226
00000000: 7802 ac3f 9ab2 9b3e 0699 1b40 d531 0dc0
00000010: 82a6 fbbf 6ad1 c2bf a749 5fbf 2474 943d
00000020: 452b 9d3f 2191 0f40 603b 073e 46c1 eebf
00000030: 79f6 38bf 0726 c0bf 772d fa3f 04db 27c0
00000040: 03cb 363d a08f dcbf 7fcb 07c0 fe1b 0140
00000050: 3e01 843f 1e15 3bc0 755c e83e 3fa6 b63f
00000060: d44d f2be 8f58 a2bf 74a4 22c0 2da3 e33f
00000070: b455 d53f 81b1 9b3f c612 97c0 41d2 b3bf
00000080: 6e30 27c0 67cf 12c0 0619 45bf 1a00 7c3e
00000090: 13c6 ce3f 0b36 c5be 552c 0dc0 54fd 853f
000000a0: 7cc1 02c0 84bb e13f 3be9 b93c 1932 de3f
000000b0: 7185 07c0 989d a0be b3cf 40bf 965b d9be
000000c0: 4208 eb3d 0439 02bf ea91 f73e 7558 53bf
000000d0: f7bf 873f bd86 eebf b629 1640 f418 9ebf
000000e0: a63a 0bc0 32d4 b4bf 05ea 04c0 d94d b03e
000000f0: 1f92 b43f 4a5d 9c3f 7961 be3d 8cf7 963f
00000100: 83b9 043f 5e18 febf 4ad4 11c0 aa38 18bf
00000110: fc17 3040 1545 a53f e0d1 e83f 786d d73f
00000120: 47a0 87be 7285 c9bf 273e 713f 2d13 ef3f
00000130: 5f32 0b40 1c4f 0b3f 49bb 043e ac22 cc3f
00000140: 8ee5 9b3d 4705 1f40 5756 b43f ba9b 9abf
00000150: 879f a03e 56a7 8d3f 4078 f7bf ec77 2c3f
00000160: 648d 09c0 4654 d53f ddb8 e53e dee4 34bf
00000170: fbe9 aa3e 0325 d2bf d90b 1a40 e4b9 08bf
00000180: 5c85 373f 7724 8a3f 7905 20bf 7f48 f43f
00000190: 4216 81bf f168 0340 2757 1b40 b8e7 363f
000001a0: a366 d33e e59c c5bf ba2c 8b3c f0c4 9abd
000001b0: c51b babe 4c61 a5bf cdd8 1340 87c3 6440
000001c0: 6c8f bebf 366b b13f 5484 b4bf 493e 0440
000001d0: 5107 423f 13d4 a63f e12f 73bf c8a3 39bf
000001e0: 4200 1940 8a53 873e 25cf 44bf d5ec 94bf
000001f0: 7a12 7ebf 043b 20c0 d449 b0bf 3958 4d3e
00000200: 8acc 1ac0 4bdf ad3f e8bd 25bf 6282 0d40
00000210: a30f acbf c8f0 23bd 7b94 83bf 5478 0fc0
00000220: 4791 90bf 2246 89bf b0d6 8dbf 5e04 59be
00000230: 566f e2bf e0e3 833f c003 1cc0 98af e53e
00000240: 9f0b 42bd e082 8bbf c996 d43e add5 b2bf
00000250: 5989 b5bf ab0d 5c3f ac0f a73f 8c87 21c0
00000260: 73f8 0a40 a7c2 09bf 2866 b03f a9f8 bebf
00000270: 9030 12c0 44da 743e db12 143f 6d43 c93f
00000280: 9dd5 913f 7cb4 573f 01fb bd3f 9a18 32c0
00000290: 6e5d 40bf cd6d 07c0 1196 1dbf 684f 10c0
000002a0: 7a17 c13f f2e3 23bf 11bc f5bb d374 e9bf
000002b0: 61d1 0040 6620 ba3f b1f9 0dc0 c0ab 7cc0
000002c0: 942c 9c3f ef6f a4bf e778 553f 6a98 b7bf
000002d0: 7197 20c0 c22c cc3e 15f6 e5bf 6a62 d03f
000002e0: 3248 82bf 4d53 743f f52f 2040 cd97 433f
000002f0: cef7 14bf e7b6 363f 04e7 9c3f 3294 b0bf

fc3.bias f4 [3]
0.74625224 -0.91765857 0.15775867
00000000: 630a 3f3f aceb 6abf 7d8b 213e
